…
    "    model.add(Dense(50,activation='relu'))\n",
    "    model.add(BatchNormalization())\n",
    "    model.add(Dropout(0.2))\n",
    "    model.add(Dense(1))\n",
    "    return model"
   ]
  },
  {
   "cell_type": "code",
   "execution_count": 108,
   "metadata": {},
   "outputs": [
    {
     "name": "stdout",
     "output_type": "stream",
     "text": [
      "_________________________________________________________________\n",
      "Layer (type)                 Output Shape              Param #   \n",
      "=================================================================\n",
      "dense_6 (Dense)              (None, 10)                3040      \n",
      "_________________________________________________________________\n",
      "dense_7 (Dense)              (None, 300)               3300      \n",
      "_________________________________________________________________\n",
      "batch_normalization_4 (Batch (None, 300)               1200      \n",
      "_________________________________________________________________\n",
      "dense_8 (Dense)              (None, 150)               45150     \n",
      "_________________________________________________________________\n",
      "batch_normalization_5 (Batch (None, 150)               600       \n",
      "_________________________________________________________________\n",
      "dense_9 (Dense)              (None, 50)                7550      \n",
      "_________________________________________________________________\n",
      "batch_normalization_6 (Batch (None, 50)                200       \n",
      "_________________________________________________________________\n",
      "dropout_1 (Dropout)          (None, 50)                0         \n",
      "_________________________________________________________________\n",
      "dense_10 (Dense)             (None, 1)                 51        \n",
      "=================================================================\n",
      "Total params: 61,091\n",
      "Trainable params: 60,091\n",
      "Non-trainable params: 1,000\n",
      "_________________________________________________________________\n"
     ]
    }
   ],
   "source": [
    "model.summary()"
   ]
  },
  {
   "cell_type": "code",
   "execution_count": 109,
   "metadata": {},
…
